Models/trained_model.pth (torch, 155590 bytes, 7 tensors)

embedding.weight f4 [20, 128]
00000000: 0000 0000 0000 0000 0000 0000 0000 0000
00000010: 0000 0000 0000 0000 0000 0000 0000 0000
00000020: 0000 0000 0000 0000 0000 0000 0000 0000
00000030: 0000 0000 0000 0000 0000 0000 0000 0000
00000040: 0000 0000 0000 0000 0000 0000 0000 0000
00000050: 0000 0000 0000 0000 0000 0000 0000 0000
00000060: 0000 0000 0000 0000 0000 0000 0000 0000
00000070: 0000 0000 0000 0000 0000 0000 0000 0000
00000080: 0000 0000 0000 0000 0000 0000 0000 0000
00000090: 0000 0000 0000 0000 0000 0000 0000 0000
000000a0: 0000 0000 0000 0000 0000 0000 0000 0000
000000b0: 0000 0000 0000 0000 0000 0000 0000 0000
000000c0: 0000 0000 0000 0000 0000 0000 0000 0000
000000d0: 0000 0000 0000 0000 0000 0000 0000 0000
000000e0: 0000 0000 0000 0000 0000 0000 0000 0000
000000f0: 0000 0000 0000 0000 0000 0000 0000 0000
00000100: 0000 0000 0000 0000 0000 0000 0000 0000
00000110: 0000 0000 0000 0000 0000 0000 0000 0000
00000120: 0000 0000 0000 0000 0000 0000 0000 0000
00000130: 0000 0000 0000 0000 0000 0000 0000 0000
00000140: 0000 0000 0000 0000 0000 0000 0000 0000
00000150: 0000 0000 0000 0000 0000 0000 0000 0000
00000160: 0000 0000 0000 0000 0000 0000 0000 0000
00000170: 0000 0000 0000 0000 0000 0000 0000 0000
00000180: 0000 0000 0000 0000 0000 0000 0000 0000
00000190: 0000 0000 0000 0000 0000 0000 0000 0000
000001a0: 0000 0000 0000 0000 0000 0000 0000 0000
000001b0: 0000 0000 0000 0000 0000 0000 0000 0000
000001c0: 0000 0000 0000 0000 0000 0000 0000 0000
000001d0: 0000 0000 0000 0000 0000 0000 0000 0000
000001e0: 0000 0000 0000 0000 0000 0000 0000 0000
000001f0: 0000 0000 0000 0000 0000 0000 0000 0000
00000200: 6dc3 90bf daaa 2940 2e49 3e3f 2047 653e
00000210: a080 063e e81b cd3f c14b f4bf 791c 2bbd
00000220: 7bd6 40bd b012 77bf c448 563f e510 d63e
00000230: 5d44 9d3e 0bf4 733d c8c7 cfbf b8db 5d3e
00000240: a3bc a8bf 8640 eabf 1046 f0be 9888 2fbf
00000250: 13ba 983c 4bb6 3e40 6c1b b43f c1f7 eb3e
00000260: bce6 523f 146b 5b3c 8e62 563f c388 8a3f
00000270: 0f20 623f c450 f83e 6a14 5ebf 42d2 b53f
00000280: 1ae6 74bc 7c1c dfbe fae6 0fbe 3b9e 14be
00000290: 2280 503e 9c13 673f f3f3 69bf e043 d7bf
000002a0: 8e0f 0ac0 6937 79bf 2b84 f4be 2a93 16c0
000002b0: 7c54 173f 6d7f 993f 8d6e 0dbe 27e7 d1bf
000002c0: 153e dd3e 21a7 82be fbf3 70bf 68ed d83e
000002d0: 1314 36bf 5370 333e 21ff a7bf 91a6 d2be
000002e0: be45 9fbf bdb1 443f 2a8c 2d3d b174 e5bf
000002f0: ede7 2ebf 46d1 f13e ceed 6a3f 1d2a de3d
00000300: 9c53 d8be 670a 8abf ad29 aebf 974f a6bf
00000310: caa5 c9bf 4774 443d b2ae 5fbf d8ec c9bc
00000320: 6682 afbf a166 ec3e 6f89 48bf bf94 2e3f
00000330: 279a 12c0 b553 3cbf e48f ce3e d37b 31bf
00000340: 79b7 41be 14e7 663e 5634 463f 20ba c03d
00000350: 2147 19be c638 aebd 7a82 21bf 8d58 0ebf
00000360: 6c3a b7be 7fa6 86bf 1339 f1be ef85 073f
00000370: 9095 b2bf ab04 873e 98a2 a6be c86f ca3f
00000380: cb56 99be a636 47bf 8519 ba3f ef73 913e
00000390: d065 393f 4e83 60bf 4342 c8be 4cbc 1a3e
000003a0: 9927 e5be 67b4 92bf ff53 7ebe 2914 9dbd
000003b0: 796d c3bf 8b11 273f 17c4 df3f 6f8b aa3f
000003c0: 4256 3bbf c889 8c3f 12c3 a0be ba9d 173f
000003d0: bb79 553f 4013 0ebf 30f9 f1bf 605c babf
000003e0: bc2a 8d3f 800d 7a3f b738 17bf 8344 053f
000003f0: d318 47bf bf05 09bf 9987 87bf 1346 ad3d
0.0 0.0 0.0 0.0 0.0 0.0 0.0 0.0
0.0 0.0 0.0 0.0 0.0 0.0 0.0 0.0
0.0 0.0 0.0 0.0 0.0 0.0 0.0 0.0
0.0 0.0 0.0 0.0 0.0 0.0 0.0 0.0
0.0 0.0 0.0 0.0 0.0 0.0 0.0 0.0
0.0 0.0 0.0 0.0 0.0 0.0 0.0 0.0
0.0 0.0 0.0 0.0 0.0 0.0 0.0 0.0
0.0 0.0 0.0 0.0 0.0 0.0 0.0 0.0
0.0 0.0 0.0 0.0 0.0 0.0 0.0 0.0
0.0 0.0 0.0 0.0 0.0 0.0 0.0 0.0
0.0 0.0 0.0 0.0 0.0 0.0 0.0 0.0
0.0 0.0 0.0 0.0 0.0 0.0 0.0 0.0
0.0 0.0 0.0 0.0 0.0 0.0 0.0 0.0
0.0 0.0 0.0 0.0 0.0 0.0 0.0 0.0
0.0 0.0 0.0 0.0 0.0 0.0 0.0 0.0
0.0 0.0 0.0 0.0 0.0 0.0 0.0 0.0
-1.1309639 2.651053 0.74330413 0.22390413 0.13135004 1.6024141 -1.9085618 -0.0417752
-0.047079545 -0.9651289 0.8370478 0.41809765 0.3071622 0.05955891 -1.6232843 0.21665847
-1.3182567 -1.8300941 -0.46928453 -0.685678 0.018643415 2.9798763 1.4070868 0.4608746
0.8238332 0.013392229 0.8374413 1.0822986 0.8833017 0.4849912 -0.867499 1.420479
-0.014947439 -0.4357642 -0.14052954 -0.14513485 0.20361379 0.90264297 -0.9138786 -1.6817589
-2.1571994 -0.97350174 -0.47757086 -2.3527322 0.5911329 1.1992012 -0.13811703 -1.6398667
0.43211427 -0.25518134 -0.94122285 0.42368627 -0.7112438 0.17523317 -1.3124734 -0.41142705
-1.2443159 0.7683371 0.04237 -1.7926236 -0.6832264 0.47229975 0.9176911 0.10847876
-0.4225129 -1.0784425 -1.3606468 -1.2993039 -1.575372 0.047962453 -0.8737594 -0.024649069
-1.371167 0.4617205 -0.7833471 0.6819572 -2.2906587 -0.73565227 0.40344155 -0.69329566
-0.18917646 0.22549087 0.7742361 0.094105005 -0.1496854 -0.085069224 -0.63089716 -0.5560387
-0.3578676 -1.051956 -0.47113857 0.5293874 -1.3951893 0.2637075 -0.32545924 1.5815363
-0.2994903 -0.7781776 1.4539038 0.28408763 0.7242098 -0.87700355 -0.39113054 0.15110892
-0.44756773 -1.1461304 -0.2483673 -0.07669861 -1.5267783 0.65261143 1.7481717 1.3323802
-0.73178494 1.0979548 -0.31398827 0.59225047 0.8338887 -0.55498123 -1.8904171 -1.4559441
1.1028666 0.9767685 -0.59070915 0.52057666 -0.77772254 -0.5352439 -1.0588256 0.08460631

rnn.weight_ih_l0 f4 [128, 128]
00000000: 4d50 f639 a895 c83d 593c a83d a8a1 9bbc
00000010: f836 863b 4989 02bc d2cf 6abd c69c 39bc
00000020: 07ed de3a d9cd 173e 7391 bebd c403 17ba
00000030: e44a 9b3d b4ad 1ebd 9f27 6fbc 1562 373d
00000040: 45d8 2a3e de4e 573d 340e 2dbd 763e 9d3c
00000050: f36b 53bd 3685 80bd 7fa7 45bd 1dc9 27be
00000060: 01b5 803d 2af1 1ebe a1c6 bbbd e9e7 94bd
00000070: 86ac c9bc 9070 513d 9f9e b93d 9a37 7bbc
00000080: 49f0 10bd 12e8 fc3c 6c01 ffbd 4f32 2fbd
00000090: b464 a83d f028 d53d 4d98 33be d081 8bbc
000000a0: e6f1 88bd 5fa9 9f3c 551c 5a3c a601 c0bd
000000b0: 2549 41bd dd08 b63d 6156 88bd 8c9b 1ebe
000000c0: ee13 c03c 4b97 54bd f60e 59bd b416 253d
000000d0: 21e1 9fbc 777f db3d 12e7 113c f249 47bc
000000e0: 3efc 4bbd 7019 473d 2af8 e33c c544 66bc
000000f0: d437 8f3c b2ea d1bd 0252 2f3e 29cd 00bd
00000100: ca42 abbb 0641 153c d3cd 4fbd f71f 00be
00000110: 0e67 63ba 86df 853d 9dca 16bd 2bc5 04bd
00000120: 4837 eebb 16bd 2abd 71e4 bc3d d31c f03d
00000130: 4d7e 2fbd fd5d 1b39 92a9 83bd 2465 a6bd
00000140: d394 733d be32 c93d 1fb5 503e 377f dcbc
00000150: 46e9 6b3d c077 40bd 3183 e23c 69e5 083e
00000160: 815b 16be 4ed0 883d 519e 35bd 59ab c0bd
00000170: 8528 b83d dcc9 87bc 93ab bb3c e19a 7fbd
00000180: 10f7 21be 3ba7 abbd b80f 90bd cfb0 ebbd
00000190: a4ff f03d 07f9 a5bc bca0 0fbc 01e6 a53c
000001a0: ed40 8fbc 9b4a 1dbd 4559 6cbd f134 513d
000001b0: 924d e5bd 37ce 8cbc 5c97 c93d 04ac c4bd
000001c0: 20c1 1bbe 76c4 e8ba 03fe f7bc 851d fa3d
000001d0: 0060 b8bd 8c0c 0f3d 097b 0cbe d785 e8bc
000001e0: cd25 283d d733 c53d 4722 91bd 2db6 593c
000001f0: 7051 67bd c484 54bc a932 f2bc e0d5 8abc
00000200: c5f9 cebb 1a12 9c3d 4295 05be 3890 11be
00000210: 32ac 83bd e80e a13d 8a48 07bd a1f1 32bd
00000220: 1ab2 323d 5fd7 b3bc cfe2 433d 06f0 12bd
00000230: 7344 563d a2aa bebd fe5f b13c 3cec d5bc
00000240: b45d 723d 5698 b03d ad24 c03c 2472 5dbd
00000250: 4eef e83c 1953 0d3d 3fe1 6e3d 92a6 65bd
00000260: cbf3 49bd d0d4 3b3d 9a68 cbbc 388a 81bc
00000270: a5fe 33bd 9985 aabc 8a0b 95bd 5604 1cbd
00000280: 7c0e 54bc 1424 45bb fef4 16bd 6336 3a3c
00000290: 50c5 97bd 8921 863c 5dfc 1ebc b642 b7bd
000002a0: 945f 483c 0a17 433d db3d 543d 2166 cabd
000002b0: b129 93bc e8c8 a4ba abee ad3c 672a 2cbd
000002c0: b6a5 66bc fdf7 613c b915 9e3b 6409 13bb
000002d0: 3267 a3bb ca4d 4ebd 29ab 6bba 44b0 383d
000002e0: ed96 0ebc b145 3bbd 23a1 163c 0cf3 c03d
000002f0: bc18 d23c 08e5 7c3c 3a0a 18bd 9f70 16bd
00000300: e4bd 533d f24f a23a d548 893d 6ab5 883d
00000310: 9ee7 d4bc fc5f 333d 84f8 713c 98b8 033d
00000320: 32b0 d2bd fb48 95bd b49f 17bb 782a 6f3d
00000330: 1dce 53bd e3a4 72ba 7acd 9ebd 5a43 953d
00000340: 29a5 bbbb 320d 6cbd b4c6 2a39 0b69 87bd
00000350: e521 f5bc f374 433c e08a 05bd 38ba ff3d
00000360: 3325 08bd 5f75 6abd 0220 9cbd 4a21 303d
00000370: 146b 033d f17f e6ba a773 f83c b92c 8f3a
00000380: 766d 8d3d c295 dbbc a104 0e3e a8c7 823d
00000390: 8cc8 473b 3f1c 633d 86ee a23d 3a3d 7abc
000003a0: bc5e 33bb a863 533d 02c8 03bd 50e7 2abd
000003b0: b187 5c3c 767f 8cbd 6567 abbd b832 01be
000003c0: 2c90 bb3c 9222 73bd 4b08 343d 1a34 943c
000003d0: 7fa7 4b3d e933 ccbc 4a79 693a 86ee 2b3d
000003e0: 5922 c8bc 44b6 dfbd 2ab8 423d fdb7 c73d
000003f0: 099c 52bd 4e86 ff3d a04b 263d 2977 1c3d
0.00046980605 0.0979417 0.082146354 -0.018997982 0.0040959083 -0.007967302 -0.0573271 -0.011328882
0.0017007896 0.14824618 -0.09305086 -0.0005760754 0.07582644 -0.038739875 -0.014596849 0.044771273
0.16684063 0.052565448 -0.042249873 0.019194823 -0.05161662 -0.06275408 -0.04825544 -0.16385312
0.06284524 -0.15521684 -0.09168745 -0.07270796 -0.024618398 0.05113274 0.09063458 -0.015333081
-0.035385404 0.030872378 -0.12451443 -0.042772587 0.082223326 0.10408199 -0.17538567 -0.017029673
-0.066867635 0.019489942 0.013312419 -0.093753144 -0.047188897 0.08888409 -0.066571005 -0.15489024
0.023447003 -0.051902097 -0.052992783 0.040304855 -0.01951653 0.10717671 0.008905189 -0.012163626
-0.049801104 0.048608243 0.027828295 -0.014054482 0.017482676 -0.10249843 0.17121127 -0.031445656
-0.0052264677 0.009109741 -0.0507334 -0.12512194 -0.0008674719 0.06536774 -0.03681432 -0.032414597
-0.0072697736 -0.041684233 0.09223259 0.11724248 -0.04284506 0.00014816965 -0.06428827 -0.0812476
0.0594681 0.098241314 0.20381592 -0.02691613 0.057595514 -0.046989202 0.027650448 0.13368763
-0.14683343 0.06680356 -0.044340435 -0.09407682 0.089921035 -0.016575746 0.022908961 -0.062403563
-0.15816903 -0.08381506 -0.07034248 -0.11508333 0.117675096 -0.020260347 -0.008766349 0.020251276
-0.017487014 -0.038401227 -0.05770232 0.05107588 -0.11196436 -0.017188175 0.09843323 -0.09603122
-0.1521039 -0.0017758745 -0.03027249 0.12212662 -0.090026855 0.034924075 -0.13718809 -0.028384132
0.041051675 0.09629028 -0.07086616 0.013288063 -0.05647415 -0.012971107 -0.029565172 -0.016947687
-0.006316396 0.0762064 -0.13045219 -0.14215171 -0.06429328 0.07864171 -0.033028163 -0.043687467
0.043626882 -0.021953283 0.047823723 -0.035873435 0.052311372 -0.093098894 0.021652218 -0.026113622
0.059171394 0.08622806 0.023454988 -0.05406393 0.028434422 0.034503076 0.05832028 -0.056067057
-0.049304765 0.04585725 -0.024830151 -0.015812978 -0.04394402 -0.020815657 -0.072775915 -0.038090073
-0.0129429065 -0.0030081319 -0.036854737 0.011365506 -0.07410681 0.016373413 -0.009703723 -0.08948271
0.012229819 0.047629394 0.051816802 -0.09882761 -0.017964216 -0.0012572082 0.02123197 -0.042032626
-0.0140775945 0.013792035 0.004824367 -0.0022436017 -0.004986667 -0.050367154 -0.00089900434 0.045089975
-0.008702976 -0.04572076 0.009193691 0.094213575 0.02564656 0.015435465 -0.037119128 -0.036728498
0.051694766 0.0012383445 0.06703345 0.06675227 -0.02598935 0.04379271 0.014768723 0.032158464
-0.10287513 -0.072893105 -0.0023135962 0.05839011 -0.051710237 -0.00092561374 -0.07754035 0.07288237
-0.0057264757 -0.05762977 0.00016286486 -0.06611832 -0.029923389 0.011929738 -0.032603145 0.1248669
-0.0332386 -0.05724084 -0.076232925 0.043000497 0.03208454 -0.0017585737 0.030328585 0.0010923363
0.06905644 -0.026804809 0.13868953 0.06385738 0.0030484525 0.05544686 0.07955651 -0.015273387
-0.0027369699 0.05160871 -0.032173164 -0.041724503 0.013460086 -0.06860249 -0.0836933 -0.12617004
0.022895895 -0.05935914 0.04395322 0.01809125 0.049720284 -0.024927096 0.0008906318 0.04197552
-0.02443044 -0.10923436 0.047538914 0.0975189 -0.051418338 0.124767885 0.040599465 0.038199577

rnn.weight_hh_l0 f4 [128, 128]
00000000: c531 8d3d ab4b 533c c7f3 25bd 5e58 55bd
00000010: 5823 2d3d 5208 b6bd 3cff e5bc 85c4 7bbd
00000020: eddb b83d abf7 afbd 37e5 f9bd dc1a 15bc
00000030: 74a8 71bd 312a bf3d dd33 c23d 4f99 663d
00000040: d7c6 07bd 9c22 fabd 9247 913d fe15 97bd
00000050: 2470 8b3d b31f 0bbe dbf6 94bd 0adb 0e39
00000060: ca21 8ebd e958 483c 8b0f 963d b167 f4bd
00000070: 2f60 a23d b749 89bd d20c b63d 920b 343d
00000080: 03f7 dcbd 718e 9f3d 864e 9eba da3c 1ebd
00000090: cbfb b03d edec a6bd 25b0 08bd 8a9f 7a3d
000000a0: 3202 7bbd 536a ffbc 40e7 aebd eba1 543d
000000b0: 0d53 abbd de7a bdbd ab84 983d 78fd a3bc
000000c0: c757 ccbb cebe 6a3d e18e 223d a3ff 633d
000000d0: bdca 87bd 7c40 d73d e35a f7bd c94b d2bd
000000e0: e006 a9bd 37b4 c8bc 9b28 9fbd b4e4 053e
000000f0: 989a a3bc 6b53 3fbe e1db ab3d ac01 4e3d
00000100: fa3a 313e 58eb cdbd 6bdf b2bd 6d32 d33d
00000110: 642b 7bbd efb2 b03c b392 463d c33e c3bc
00000120: 99b8 653c 5464 ad3d 67e2 28bd fe0d 043d
00000130: fdfc 55bd e134 0ebd 5e17 be3d 13cb c33d
00000140: 23c5 d13b ab03 f83d e05e 34bd 4421 84bc
00000150: 2342 533d 7e6f 9abd a7a3 e5bd 2c9a 2e3d
00000160: f193 343b 8cde 4d3c 1f52 45bd 64f1 23bd
00000170: 8d44 733b ca7d 633d e04e 963d 8982 f5bc
00000180: a527 97bc 8761 d5bd 31d2 18be 1a6e 3bbb
00000190: 449c 603b 952f a2bc c104 b03c fcd5 983d
000001a0: 8482 343c 9e9a a0bd 1c86 4c3d 639f 91be
000001b0: 181a f4bc f6bf 08bc 39fb 7c3d 0bac a43d
000001c0: c050 e63b 8d77 89bd 7ac3 29bd 6dbf 64bd
000001d0: db6b 8bbc 7d26 1fbd 5ca3 9abd a015 fc3d
000001e0: b4f1 3bbd 04ca 3ebc 2144 09bc 6aa5 9a3d
000001f0: 2690 953d 174d adbb 5c4e 1abd 0fe1 8bbc
00000200: 38fc ffbd 52bf e53e f678 b0bd ecfb 3c3d
00000210: f803 c93d 904d 5abd b6db 4abc e0c6 c3bd
00000220: 06e2 123e 798d 963b c916 26be 1634 d8bd
00000230: f06c a33d c21f 51bc 451c 4fbd 47cd 46bd
00000240: 704a 80bd af42 50bc 2904 91bd 7671 753d
00000250: 75d8 e8bc 9a0f 5e3d 9f27 03be dd9c 403e
00000260: 9542 4cbd 957f 893c 254e 3c3d e1d2 9f3d
00000270: d324 19bd 9a48 843d f455 63bd ca0b 9abd
00000280: 8c9f cfbd ca89 86bd 252f 07be 3223 51bd
00000290: 6c63 a9bc 7f6b 9bbd 0b56 03bd d656 593d
000002a0: 5975 ff3d b538 47bd 13c4 2d3d 2032 eb3a
000002b0: bdc7 f4bd bec7 153d 386d 5f3e 4be9 3b3c
000002c0: b327 063e f9cc 933d 0562 d6bc 7a9a df3c
000002d0: 86f1 253b ef98 ad3d c618 e53d 7cc5 113d
000002e0: c42c cfbc c0c7 363d e9ec 2e3d 13ee e9bc
000002f0: e87f ad3d 97c9 5b3c 742a 4cbd d873 1ebe
00000300: fbf2 33bd 08f4 e33c fbf7 343c 381c 22bc
00000310: bc05 1b3d 0387 babc d286 3b3e 7ced a63c
00000320: 7089 74bd 0cf5 84bd b227 1abd 6485 833d
00000330: 34f7 113d 7dad 41bb 114d 9fbd ca35 8b3d
00000340: 0abb 25be 8672 33be 5536 d4bd 143f 223d
00000350: 4e56 f9bd d2c6 11bd 0d64 c23d ad65 a7bd
00000360: 3d79 5c3c 4ff9 013d c37a 19bd 307c ca3c
00000370: d535 85bd 09a7 a23d a20d 9d3b 8446 acbc
00000380: 4231 fcbd 4ea8 b1bd 0496 c53d 9376 87bd
00000390: 1a21 873c 5998 053e 0475 cb3d be28 37bd
000003a0: c431 933d 042f 863d 3d35 40bd 999d a2bd
000003b0: 09d5 403e 3e3a d5bc 5ece a43b 8413 ae3d
000003c0: a864 943d bb2f 90bc 5742 56bd f08a 5c3d
000003d0: fb13 78bd e633 19bd d82a b5bd cc01 6a3d
000003e0: dfd4 ea3d aff3 ab3c 31d9 cb3c 98f1 873d
000003f0: 78d6 5b3d b91a 80bc 778f 37be 21c4 48bd
0.068942584 0.012896459 -0.040515687 -0.052086227 0.042270035 -0.08888306 -0.028075807 -0.061466713
0.090263225 -0.08592161 -0.122019224 -0.009100642 -0.05899854 0.09334219 0.094825484 0.05629855
-0.033148613 -0.122136325 0.07093729 -0.073772416 0.068084985 -0.13586311 -0.072736464 0.00013623774
-0.069400385 0.012228229 0.07327183 -0.1193384 0.07928502 -0.06703513 0.08889164 0.043956347
-0.10789301 0.077908404 -0.0012077845 -0.03863225 0.08641776 -0.08150659 -0.03337111 0.061187305
-0.06128139 -0.031178629 -0.08540201 0.05191223 -0.0836545 -0.09251951 0.074471794 -0.020018324
-0.00623605 0.05731087 0.03968704 0.055663716 -0.06630466 0.10510346 -0.12077882 -0.10268361
-0.082532644 -0.024499996 -0.07771417 0.13075525 -0.019971177 -0.18684165 0.08391548 0.050294563
0.17307654 -0.10054654 -0.0873402 0.10312352 -0.061320677 0.021569697 0.048479747 -0.023833638
0.014021062 0.08466402 -0.04123154 0.032239906 -0.05224322 -0.034718398 0.09281801 0.09560218
0.0064016744 0.121100746 -0.044035792 -0.016129144 0.051576745 -0.07540797 -0.11212855 0.0426275
0.0027554 0.012565266 -0.04817402 -0.04002513 0.0037119717 0.055539884 0.07339263 -0.02996947
-0.018451521 -0.104189925 -0.14923932 -0.0028599561 0.003427283 -0.01979808 0.021486642 0.07462689
0.0110174455 -0.07841991 0.049932584 -0.28441915 -0.029797599 -0.008346548 0.061763022 0.08040627
0.007028669 -0.067122556 -0.041446187 -0.05584662 -0.017019203 -0.038855065 -0.075506896 0.12308812
-0.045884803 -0.011644844 -0.00837806 0.075510815 0.07302885 -0.005288731 -0.037672386 -0.01707509
-0.12499279 0.44872528 -0.086168215 0.04613869 0.0981521 -0.053296626 -0.012381485 -0.09559417
0.14344034 0.0045945016 -0.1621963 -0.105568096 0.079797626 -0.012763919 -0.05056407 -0.04853561
-0.06264198 -0.012711211 -0.070808716 0.059922658 -0.028423527 0.054214098 -0.12808083 0.18809839
-0.049868185 0.016784469 0.045972962 0.07803894 -0.037388634 0.0645916 -0.055501893 -0.0752178
-0.10137853 -0.0656925 -0.13201578 -0.051058955 -0.02067729 -0.07588863 -0.03206448 0.05306133
0.12473554 -0.048638064 0.04242332 0.0017944016 -0.119521596 0.036567442 0.21819007 0.011469196
0.13101082 0.0721683 -0.026169786 0.02729534 0.002532096 0.084764354 0.11186366 0.035588726
-0.0252899 0.04462409 0.042706404 -0.028555905 0.08471662 0.013414762 -0.049845174 -0.15473878
-0.043932896 0.027826324 0.011045451 -0.009894423 0.037847266 -0.022769457 0.18313149 0.020376913
-0.059701383 -0.064920515 -0.037635513 0.064219266 0.035636142 -0.002955287 -0.07778371 0.06797369
-0.16184631 -0.17524156 -0.103619255 0.039610937 -0.121746644 -0.03559 0.094917394 -0.0817369
0.01345664 0.0317319 -0.03747059 0.02471742 -0.06504408 0.07942016 0.004792885 -0.021029718
-0.12314083 -0.0867468 0.09647754 -0.06614413 0.016495276 0.13046397 0.09934428 -0.04471659
0.071872264 0.06551936 -0.046925772 -0.079402156 0.18831266 -0.026028749 0.0050294837 0.08499816
0.07245761 -0.017600885 -0.05230936 0.05384344 -0.06056593 -0.03740301 -0.088460624 0.05713062
0.11466383 0.02099022 0.024883838 0.06637877 0.05367133 -0.015637742 -0.17925821 -0.049015168

rnn.bias_ih_l0 f4 [128]
00000000: a0a4 b7bc ee5e 86bb 43d4 8abd 478d 08be
00000010: 2989 863c dfa8 83bc a7c8 07be a235 42bd
00000020: ed31 a0bd 85bf e2bd 8018 603b 63dd 18bd
00000030: 3e83 2cbd 94ff babd 642d e3bd 651c fbbd
00000040: 7545 c4bd d03d a03d b09a 90bc 5338 ba3d
00000050: 19f3 06bd 7d04 09bc 5e24 f83d 3010 ec3d
00000060: d185 c43d c7e7 d73d 5356 833d 7274 913c
00000070: ffc8 abbd 9de7 093d 081f 16be a4a7 d03c
00000080: e359 28bd a8a8 a53d b659 3d3d f59d 35bc
00000090: 07f3 113b 5dcb e1bb 9eff 2d3d 3499 19bd
000000a0: 7077 86bd 31ae f23b 2201 06bd 32a8 e43d
000000b0: 8005 013e c1b2 dd3c 9448 b1bd 068c 20bd
000000c0: c5ef 3b3d 734c 14bd 7059 e43c 6534 17bd
000000d0: 3f92 ff3d ac76 9ebd 7e5e c73d 8641 af3d
000000e0: d1a9 b3bd 3992 083d 7b5e 97bd f6fe c5bd
000000f0: 7e3f adbd 8199 7f3d a06d 67bd 09e3 c3bd
00000100: 4984 d33b 15da e33d a3aa 90bc fe3e 8f3d
00000110: 9560 14be 6aba debd 9b8d e23c d115 1fbd
00000120: caf6 e6bb 63b0 15bd 9f4e 8bbc 2b50 233d
00000130: 7e50 b13d 761e 193d 2c64 9fbd 5c3c fbbc
00000140: 8215 68bd 2de9 9dbd 56a3 8ab9 25c5 0c3d
00000150: 863d 1c3d 3a5d d7bd a3fa ce3c 38a1 13be
00000160: 1ee9 80bd bce0 7ebc c4af ce3d ee65 80bd
00000170: 2758 d7bd 4306 02be 3f3e 293d a886 013e
00000180: d3de fabd 7b07 413d 612d 673d d380 6dbd
00000190: 95a2 9b3d b544 b73b 3e5f 03be 853f 043d
000001a0: 56f6 0abe a11b 0a3e c403 af3d afeb 4c3d
000001b0: f251 c13b 6e7d 9f3d 0389 7f3d 63fc 40bd
000001c0: eee0 91bc 42cf 5b3d 6536 2fbc a665 633c
000001d0: 6b90 533d 3014 61bb a460 693d 48f0 dbbd
000001e0: a0f1 90bd 727c 14be ee6e ac3d 5f0b e6bd
000001f0: 605f 883d b6a0 4d3d 7210 f3bd ba69 ccbd
-0.022417367 -0.004100672 -0.06778767 -0.13335143 0.016422825 -0.016071735 -0.13260137 -0.04741443
-0.078220226 -0.11071686 0.003419429 -0.037320506 -0.04211735 -0.09130779 -0.11092642 -0.12261275
-0.095835604 0.0782429 -0.017651886 0.09092774 -0.03294668 -0.0083628865 0.121163115 0.11526525
0.09595836 0.10542255 0.064129494 0.01775572 -0.08387946 0.03366815 -0.14660275 0.025470562
-0.041101348 0.08088809 0.046228133 -0.011085023 0.00222701 -0.006890698 0.042480104 -0.03749962
-0.0656575 0.007406019 -0.032715924 0.11164893 0.12599754 0.027062776 -0.08656421 -0.039196037
0.04588296 -0.03620572 0.027874678 -0.0369152 0.12479066 -0.077374786 0.0973482 0.085574195
-0.08772624 0.033342574 -0.073910676 -0.096677706 -0.08459376 0.062402252 -0.05650103 -0.09564788
0.0064549786 0.1112558 -0.01765949 0.06994437 -0.14489968 -0.108753994 0.027655413 -0.038839165
-0.0070484625 -0.03654517 -0.017005263 0.039871376 0.08657931 0.037382565 -0.07782778 -0.03066843
-0.056661136 -0.077104904 -0.00026443106 0.0343677 0.03814461 -0.105158284 0.025265997 -0.14416969
-0.062944636 -0.015556511 0.100921184 -0.062694415 -0.105148606 -0.12697701 0.041319128 0.12649024
-0.122495316 0.047126275 0.05643976 -0.057984184 0.075993694 0.0055929073 -0.12829301 0.03228714
-0.13570532 0.13487102 0.0854564 0.050029453 0.005899661 0.07787596 0.062386524 -0.047115695
-0.01780745 0.053664453 -0.010694121 0.013879215 0.0516514 -0.0034344308 0.05697693 -0.107391894
-0.07077336 -0.14500597 0.08419596 -0.112326376 0.06658816 0.050202094 -0.11868371 -0.09981103

rnn.bias_hh_l0 f4 [128]
00000000: 6f3a 80bd 27fa 22bd b6e4 97bd 974c c3bd
00000010: e217 80ba 26bb 453a 11b0 fbbd 3b89 5c3d
00000020: 9166 1d3d 4a0f 2c3d df63 a1bd 4033 ec3d
00000030: f536 06bd c8eb 16be 9550 d1bc 5933 e5bd
00000040: 10ef 113d 53c2 ef3d 0c98 02be 6b74 bebc
00000050: 6290 d6bd d729 5d3d ec80 033e 5d8c ee3d
00000060: c5ec 0e3e 858e b53b 3423 723d 67b0 8a3c
00000070: cdde f0bc aab2 eabd 099a 0abe 8d8c b03d
00000080: 72a9 8b3d a737 b6bc 4399 b0bd 70c4 5fbd
00000090: 31e0 763d 920b 02be c64f ef3d ec41 ea3a
000000a0: acf7 a7bd 75c0 e2bd 3817 813d cdf3 873c
000000b0: c2a5 983b 51b9 9d3d c18e 133d e74b 97bd
000000c0: c7c6 55bd a54b 033c 163f a8bd e468 be3c
000000d0: a2df ac3d 1c96 00be 35d4 013e 9b06 9c3d
000000e0: d62d 14bd a299 a5bc 2ef3 cb3c 2fe3 b9bd
000000f0: 562d 8bbc e51c 14bd 8afa 00be fd45 02be
00000100: ee95 083d e4ba c13d de81 e0bd 5445 c43d
00000110: e39f 79bd 10b2 66bd cafd 873d cdda a6bd
00000120: 2c59 8c3c daa8 b6bd bcf2 c9bd 7d81 40bd
00000130: 4e0a 8c3d 71ca 8a3d b8a8 5bbb 27cb 8fbd
00000140: 988b 10bd 51b1 90bd b939 cbbd 83f0 a83d
00000150: 3d39 b6bc 5fd7 f1bd 600f b2bb 94c1 fbbc
00000160: 4965 d43c 182d c7bd a0a3 0f3e 2f73 cd3d
00000170: 2cf1 98bc b81f 19bd 028e 1e3e 716d 82bc
00000180: 4720 a8bc 92bc 9e3c 8ca0 863d 7d14 03be
00000190: 6f5b f43c 9225 aa3c 40cb d3bd 0398 b43d
000001a0: e53f 1bbe e656 cd3d dd8e ad3c 7b33 2abd
000001b0: f1ca 013d 92e9 e93d ae19 f03d f380 c3bd
000001c0: 4f0b 5dbb 0a16 423c fb51 8d3a 1cbb 903b
000001d0: b174 8a3d 8380 57bd fa8b f13d db4a 1ebd
000001e0: a004 26bd c92e 55bd 509e 0c3e ed5b 56bc
000001f0: b87c 873d ab25 9ebc ee86 80bd da97 00bd
-0.06261145 -0.039789345 -0.0741667 -0.09536093 -0.0009772743 0.0007542841 -0.122894414 0.05384181
0.038427893 0.04200677 -0.07880377 0.11533213 -0.032767255 -0.14738381 -0.02555112 -0.111914344
0.03562838 0.11706986 -0.12753314 -0.023248872 -0.104767576 0.05399498 0.12842149 0.11647866
0.13957508 0.0055406713 0.059115604 0.016929818 -0.029403115 -0.11459859 -0.13535322 0.08620558
0.068194285 -0.022243334 -0.08622982 -0.054630697 0.0602724 -0.12699726 0.116851375 0.001787243
-0.082015365 -0.110718645 0.06303257 0.016595745 0.0046584317 0.07701362 0.036024813 -0.07387524
-0.052191522 0.0080136405 -0.08215158 0.023243375 0.08441092 -0.12557262 0.12678607 0.076184474
-0.036176525 -0.02021486 0.02489623 -0.09076535 -0.016989391 -0.03616037 -0.12595573 -0.12722011
0.03334611 0.09459475 -0.1096227 0.09583536 -0.060943495 -0.056322157 0.06640203 -0.08147202
0.017132364 -0.08918925 -0.09860751 -0.04699849 0.06837903 0.06776894 -0.0033517312 -0.0702117
-0.035289377 -0.070650704 -0.09923119 0.08248999 -0.02224409 -0.11808657 -0.0054339617 -0.030731954
0.025927203 -0.09725398 0.14027262 0.10031735 -0.018669687 -0.037383765 0.15483859 -0.015921326
-0.020523204 0.019377027 0.06573591 -0.12800784 0.029828755 0.020769868 -0.10341501 0.088180564
-0.15161093 0.1002634 0.021186287 -0.041553 0.03168768 0.11421503 0.11723648 -0.095460795
-0.0033728664 0.011846075 0.0010781878 0.0044168364 0.06760538 -0.052612793 0.117942765 -0.038645606
-0.040531754 -0.05204657 0.13732266 -0.01308344 0.06615585 -0.01930507 -0.06275736 -0.031394817

fc.weight f4 [20, 128]
00000000: 12ac 84bd 4772 8e3d e159 a1bc eff5 f6bd
00000010: 0a92 b1bc 0e92 113e 9273 43bd 7d99 a3bd
00000020: d543 8bbd b9de acbd c038 90bd 4594 9b3d
00000030: 7cfc 743d 2eaa 98bd 1f72 2a3d 2f9e fabd
00000040: f814 e4bd 479f 463d c161 18be 3652 74bd
00000050: 85c8 93bd a00c 7dbc db17 a83c fcf1 bb3d
00000060: b2e2 cf3d 3c1c a83d e7aa 75bd 92ed 47be
00000070: 929b a2bd d6bf 36bd 41df 99bd cb76 eb3d
00000080: def0 d0bd 311b 0b3e a8c9 1ebe 6cab 60bd
00000090: 1edc e53d 13b1 03be 1985 833d 6dac adbd
000000a0: 1279 cdbd c9d8 afbd 04c8 ca3d 4fb2 013e
000000b0: 566d 423d cb67 f73c 5aca 94b9 de3c 6f3d
000000c0: e707 233d a843 883d a79c 30bd c4ca d63c
000000d0: 1a87 923d 66d2 6bbd b535 413e 1eb3 14bd
000000e0: a476 9bbd 509b 74bd 1d81 93bd 3a0c edbd
000000f0: 4088 f63c ca3b 36bd ed3f 0abe 93a6 01be
00000100: 5827 8dbc 1957 873d 6f3d 223c 3f8d 8e3e
00000110: 8f8b bebc 5d96 eebc f186 9c3d 6cfa 98bd
00000120: cc09 10bd bce7 2d3d 3ddd 8bbc 9ad6 2d3d
00000130: 8e9e d1bd 64fd 8d3d 8ee1 d33d bffa e13c
00000140: 9f81 783c fd16 ab3c 0c55 cdbd 616d ac3d
00000150: 8cae 82bd d3f2 aabd 8730 a1bc 7e5e c9bd
00000160: 1b0d b8bd 0b8a 15bd 7683 5d3e d9a1 533d
00000170: 653b 0abe 83f0 01be f073 073e 2e2a 773d
00000180: c852 88bd 2c36 5e3d 6577 193e bc5e 3cbd
00000190: 3284 9f3d 81ec b73d 083e 0dbe 39f3 b1bd
000001a0: 56dc 6abd 45da 253e a4e6 53bd edf8 bdbd
000001b0: f751 8a3d 13f2 723d a203 c13c ab4c 83bd
000001c0: a767 8e3d e780 113e 11a4 dbbd 563c 9c3d
000001d0: 3220 7b3d 154a 843a abbe 9d3d ce50 1ebe
000001e0: b723 fbbd d65b 0cbe 5b09 d63d 5e56 a9bd
000001f0: d4d4 de3d 5ee6 013e 7b31 04bd d5de ebbc
00000200: 50ce ee3d 5ed7 ac38 ce92 db39 098e 2f3e
00000210: 13f4 8e3d b810 09be 5d3c 0a3e a3a6 073e
00000220: 8769 ce3d 707e 5c3d af4c 75bc a1fd fabd
00000230: aa8c 98bd fca7 053e a0af 02bd bf30 cc3d
00000240: 0d7a febc 8d1e 36be 326d 033e 3c75 103e
00000250: dce0 99bd 112e 47bd 5611 3d3a 4038 06be
00000260: 7c3e b0bd 9acc 60bd 8c58 a6bd 1898 1d3d
00000270: aac0 543d 5860 e23c 61fc 073e 311e 80bd
00000280: b2dc cbbb 2831 a8bc 00b4 193e 62a2 d23d
00000290: 30b1 8ebd fd6c 383d 3bae 33bd b561 2d3d
000002a0: fbaa 823d f538 aebd 9529 493d cf37 77bc
000002b0: b6bf 66bd a8ce 40bd 819c e73d 61e4 be3d
000002c0: d5f1 99bc 559c 443d fa5a 4f3d 52e5 36be
000002d0: 27d0 f2bd 4f84 113e ee69 33be 0279 2a3d
000002e0: 874b 97bc 5172 32bd e5cf 0a3d a045 f93d
000002f0: b29e 973c a210 b8bd 2a16 a63b 02ef f8bc
00000300: 12b3 1d3e 6633 4abe 6960 6fbc d740 a9bd
00000310: c13b e23d 1ca3 8d3d 72ff 90bd 4ba2 89bd
00000320: f127 353e f3f1 02bd 7ef0 ea3c 3f3d bcbd
00000330: 2d54 913d 95af e1bd e660 2ebd 290d cbbc
00000340: d584 823d 469a b1bc 17ce f33d 0962 dabd
00000350: ff7e 0f3e dea5 bc3a ed9c 043d 218b 803d
00000360: e911 6ebc bccc c7bd b67d a9bc 7691 20bd
00000370: d087 e43d 6d2a b93d 9830 953c c8d7 e03d
00000380: f4f4 853c f673 a73d 3491 aabd cf14 1b3e
00000390: 3f54 3abd 76df c7bd a3fc 353e 50bb fa3d
000003a0: a728 2f3e 1117 8bbc d72a 34be d2a1 06be
000003b0: 4e67 943d 0668 80bd 9a31 00be d25a 633d
000003c0: aa3b 073e 6717 2a3d 4fed 633c 2c0d 6f3d
000003d0: cf34 1abe ed30 ba3d 971a 7d3d 2d69 3c3d
000003e0: fe99 ed3d 2459 963e 4bc9 98bd f081 7f3d
000003f0: 2dc7 ae3c c91f 4c3d 651b 063e ef3e 253e
-0.06478132 0.069553904 -0.019696178 -0.12058627 -0.021676082 0.14215872 -0.04771764 -0.0798826
-0.06800047 -0.084409185 -0.07042074 0.075966395 0.0598111 -0.07454334 0.04161274 -0.122372024
-0.11136812 0.048491742 -0.1488104 -0.059648715 -0.072159804 -0.015444905 0.020519188 0.09177014
0.101506606 0.0820851 -0.05997744 -0.1952422 -0.07939829 -0.044616543 -0.075132854 0.11497267
-0.10202192 0.13584591 -0.15506613 -0.05485098 0.11223625 -0.12860517 0.06421871 -0.08480153
-0.10032858 -0.0858627 0.09901431 0.12665676 0.047467552 0.03020086 -0.00028379523 0.058407657
0.039802458 0.066535294 -0.043118145 0.026219733 0.07154675 -0.0575737 0.18868144 -0.036303632
-0.07590988 -0.05971843 -0.07202361 -0.11574598 0.030094266 -0.044490613 -0.13500948 -0.126612
-0.017230675 0.066084094 0.009902342 0.27842137 -0.023259906 -0.029124433 0.076429255 -0.07469639
-0.035165593 0.042457327 -0.017073268 0.042440988 -0.1023532 0.06933096 0.103457555 0.027585385
0.015167623 0.020884985 -0.10025987 0.084193 -0.063809484 -0.08347096 -0.01967646 -0.09832476
-0.08986875 -0.0365086 0.2163218 0.05166802 -0.1349922 -0.12689404 0.1322782 0.06034296
-0.06656414 0.05425088 0.14986952 -0.045988783 0.07788886 0.089806564 -0.13793194 -0.08688969
-0.057339035 0.16196544 -0.051733628 -0.092759944 0.06753915 0.05931289 0.023561303 -0.06411108
0.06953364 0.14209329 -0.107246526 0.07628696 0.06131 0.0010092879 0.07702383 -0.15460512
-0.122626714 -0.13706908 0.10451003 -0.08268426 0.108804375 0.12685534 -0.03227375 -0.028792778
0.11660445 8.2417144e-05 0.00041880313 0.17144026 0.06980147 -0.13385284 0.1349959 0.1324716
0.100787215 0.053831518 -0.014971896 -0.12255407 -0.074487045 0.13052362 -0.03190577 0.09970235
-0.031064058 -0.17785092 0.12834623 0.14107221 -0.07513592 -0.048627917 0.0007212361 -0.13107395
-0.08605668 -0.054882623 -0.08122358 0.038475126 0.05194155 0.02763383 0.13279869 -0.062557586
-0.0062213773 -0.020531252 0.15010071 0.10284878 -0.069673896 0.045025814 -0.04386733 0.04232951
0.06380268 -0.085069574 0.04911192 -0.015088989 -0.056335174 -0.047072083 0.113091476 0.093209036
-0.018792072 0.048000652 0.05062387 -0.17860916 -0.11856108 0.14210628 -0.17520878 0.04161931
-0.018468631 -0.043566052 0.03388967 0.12171483 0.018508289 -0.089875475 0.00506856 -0.030387405
0.15400341 -0.1974617 -0.014610388 -0.0826432 0.110465534 0.06915876 -0.07079972 -0.06720408
0.17691018 -0.031969022 0.028679129 -0.09191369 0.070961334 -0.11019818 -0.04257288 -0.024786549
0.06372992 -0.021680009 0.11904543 -0.1066323 0.14013289 0.0014392694 0.03237622 0.06276537
-0.014530637 -0.09755847 -0.020689826 -0.039201222 0.11158717 0.09041295 0.018211648 0.10978657
0.016352154 0.08176415 -0.083284765 0.15144657 -0.0454905 -0.09759419 0.17772155 0.12242758
0.17105351 -0.016978772 -0.17594467 -0.13147667 0.07246266 -0.06269841 -0.12518921 0.055506535
0.13206354 0.041526224 0.013911559 0.05836217 -0.15059207 0.09091363 0.061792936 0.04599874
0.11601637 0.29364884 -0.074602686 0.062379777 0.021335209 0.049835 0.13096388 0.16137289

fc.bias f4 [20]
00000000: 02c8 863b 66d7 24bd ee28 08be 6e96 67bd
00000010: 8ca5 e6bd 82e7 3dbd c710 debd 06f4 82bd
00000020: ec6b e5ba ba4a 5bbc d4ac 5dbe e641 e8bb
00000030: 8c9a eebd c1d9 20bd d72e 4cbc e456 9a3d
00000040: 3435 dbbd 3161 12bd ac8c e8bd 4f19 cfbd
0.0041131983 -0.040244482 -0.13296863 -0.056539945 -0.11262044 -0.04636336 -0.10843044 -0.063942
-0.0017503477 -0.013384515 -0.2164796 -0.007087934 -0.11650571 -0.039270166 -0.012462339 0.07536104
-0.10703507 -0.03573722 -0.11354956 -0.10112249
